…
    "BATCH_SIZE = 64"
   ]
  },
  {
   "cell_type": "code",
   "execution_count": 6,
   "metadata": {
    "id": "xBmiqZVwtZwq"
   },
   "outputs": [
    {
     "name": "stdout",
     "output_type": "stream",
     "text": [
      "\n",
      "\n",
      "===== Discriminator Model Summary ======\n",
      "\n",
      "Model: \"sequential_2\"\n",
      "_________________________________________________________________\n",
      "Layer (type)                 Output Shape              Param #   \n",
      "=================================================================\n",
      "conv2d_11 (Conv2D)           (None, 64, 64, 32)        896       \n",
      "_________________________________________________________________\n",
      "leaky_re_lu_8 (LeakyReLU)    (None, 64, 64, 32)        0         \n",
      "_________________________________________________________________\n",
      "conv2d_12 (Conv2D)           (None, 32, 32, 32)        9248      \n",
      "_________________________________________________________________\n",
      "leaky_re_lu_9 (LeakyReLU)    (None, 32, 32, 32)        0         \n",
      "_________________________________________________________________\n",
      "conv2d_13 (Conv2D)           (None, 16, 16, 64)        18496     \n",
      "_________________________________________________________________\n",
      "leaky_re_lu_10 (LeakyReLU)   (None, 16, 16, 64)        0         \n",
      "_________________________________________________________________\n",
      "conv2d_14 (Conv2D)           (None, 8, 8, 64)          36928     \n",
      "_________________________________________________________________\n",
      "leaky_re_lu_11 (LeakyReLU)   (None, 8, 8, 64)          0         \n",
      "_________________________________________________________________\n",
      "conv2d_15 (Conv2D)           (None, 4, 4, 128)         73856     \n",
      "_________________________________________________________________\n",
      "leaky_re_lu_12 (LeakyReLU)   (None, 4, 4, 128)         0         \n",
      "_________________________________________________________________\n",
      "conv2d_16 (Conv2D)           (None, 2, 2, 128)         147584    \n",
      "_________________________________________________________________\n",
      "leaky_re_lu_13 (LeakyReLU)   (None, 2, 2, 128)         0         \n",
      "_________________________________________________________________\n",
      "conv2d_17 (Conv2D)           (None, 1, 1, 256)         295168    \n",
      "_________________________________________________________________\n",
      "leaky_re_lu_14 (LeakyReLU)   (None, 1, 1, 256)         0         \n",
      "_________________________________________________________________\n",
      "conv2d_18 (Conv2D)           (None, 1, 1, 256)         590080    \n",
      "_________________________________________________________________\n",
      "leaky_re_lu_15 (LeakyReLU)   (None, 1, 1, 256)         0         \n",
      "_________________________________________________________________\n",
      "flatten_1 (Flatten)          (None, 256)               0         \n",
      "=================================================================\n",
      "Total params: 1,172,256\n",
      "Trainable params: 1,172,256\n",
      "Non-trainable params: 0\n",
      "_________________________________________________________________\n",
      "\n",
      "\n",
      "===== Generator Model Summary ========\n",
      "\n",
      "Model: \"sequential_3\"\n",
      "_________________________________________________________________\n",
      "Layer (type)                 Output Shape              Param #   \n",
      "=================================================================\n",
      "dense_1 (Dense)              (None, 131072)            13238272  \n",
      "_________________________________________________________________\n",
      "reshape_1 (Reshape)          (None, 32, 32, 128)       0         \n",
      "_________________________________________________________________\n",
      "batch_normalization_3 (Batch (None, 32, 32, 128)       512       \n",
      "_________________________________________________________________\n",
      "up_sampling2d_2 (UpSampling2 (None, 64, 64, 128)       0         \n",
      "_________________________________________________________________\n",
      "conv2d_19 (Conv2D)           (None, 64, 64, 128)       147584    \n",
      "_________________________________________________________________\n",
      "activation_3 (Activation)    (None, 64, 64, 128)       0         \n",
      "_________________________________________________________________\n",
      "batch_normalization_4 (Batch (None, 64, 64, 128)       512       \n",
      "_________________________________________________________________\n",
      "up_sampling2d_3 (UpSampling2 (None, 128, 128, 128)     0         \n",
      "_________________________________________________________________\n",
      "conv2d_20 (Conv2D)           (None, 128, 128, 64)      73792     \n",
      "_________________________________________________________________\n",
      "activation_4 (Activation)    (None, 128, 128, 64)      0         \n",
      "_________________________________________________________________\n",
      "batch_normalization_5 (Batch (None, 128, 128, 64)      256       \n",
      "_________________________________________________________________\n",
      "conv2d_21 (Conv2D)           (None, 128, 128, 3)       1731      \n",
      "_________________________________________________________________\n",
      "activation_5 (Activation)    (None, 128, 128, 3)       0         \n",
      "=================================================================\n",
      "Total params: 13,462,659\n",
      "Trainable params: 13,462,019\n",
      "Non-trainable params: 640\n",
      "_________________________________________________________________\n",
      "<class 'tensorflow.python.keras.engine.keras_tensor.KerasTensor'>\n",
      "KerasTensor(type_spec=TensorSpec(shape=(None, 128, 128, 3), dtype=tf.float32, name=None), name='model_2/sequential_3/activation_5/Tanh:0', description=\"created by layer 'model_2'\")\n"
…
        "if __name__ == '__main__':\n",
        "    gan = GAN()\n",
        "    gan.train(images,epochs=100, batch_size=32, sample_interval=200)"
      ],
      "execution_count": null,
      "outputs": [
        {
          "output_type": "stream",
          "text": [
            "Model: \"sequential_2\"\n",
            "_________________________________________________________________\n",
            "Layer (type)                 Output Shape              Param #   \n",
            "=================================================================\n",
            "dense (Dense)                (None, 256)               25856     \n",
            "_________________________________________________________________\n",
            "leaky_re_lu_18 (LeakyReLU)   (None, 256)               0         \n",
            "_________________________________________________________________\n",
            "batch_normalization (BatchNo (None, 256)               1024      \n",
            "_________________________________________________________________\n",
            "dense_1 (Dense)              (None, 512)               131584    \n",
            "_________________________________________________________________\n",
            "leaky_re_lu_19 (LeakyReLU)   (None, 512)               0         \n",
            "_________________________________________________________________\n",
            "batch_normalization_1 (Batch (None, 512)               2048      \n",
            "_________________________________________________________________\n",
            "dense_2 (Dense)              (None, 1024)              525312    \n",
            "_________________________________________________________________\n",
            "leaky_re_lu_20 (LeakyReLU)   (None, 1024)              0         \n",
            "_________________________________________________________________\n",
            "batch_normalization_2 (Batch (None, 1024)              4096      \n",
            "_________________________________________________________________\n",
            "dense_3 (Dense)              (None, 49152)             50380800  \n",
            "_________________________________________________________________\n",
            "reshape (Reshape)            (None, 128, 128, 3)       0         \n",
            "=================================================================\n",
            "Total params: 51,070,720\n",
            "Trainable params: 51,067,136\n",
            "Non-trainable params: 3,584\n",
            "_________________________________________________________________\n",
            "0 [D loss: 5.732411, acc.: 0.00%] [G loss: 10.376823]\n",
            "1 [D loss: 5.026593, acc.: 0.00%] [G loss: 9.505965]\n",
…
